Python/model/keypoint_classifier/keypoint_classifier.tflite (tflite, 6624 bytes, 6 tensors)

arith.constant f4 [6, 10]
0	0x3e9fadf8	0.31187415
1	0xbf339ba7	-0.7015938
2	0xbe7cbc26	-0.24681148
3	0x3ec49e78	0.38402152
4	0x3e1a76e5	0.15084417
5	0x3f3ab870	0.7293768
6	0xbea22023	-0.31665143
7	0x3e659fd9	0.22424258
8	0xbf756238	-0.95852995
9	0x3f2851e9	0.65749985
10	0xbeebb036	-0.46032876
11	0x3e94a2fe	0.29030603
12	0x3f207207	0.6267399
13	0xbf09a20a	-0.53762877
14	0x3f34c010	0.70605564
15	0x3f45f096	0.7732023
16	0xbf2d732b	-0.6775386
17	0xbf8c9dc6	-1.0985649
18	0x3e959171	0.29212525
19	0x3db8ee2b	0.09029802
20	0x3ec0661d	0.37577906
21	0x3ec681d1	0.38770917
22	0x3f314c1b	0.6925675
23	0xbf33c9b2	-0.7022964
24	0xbf5462e4	-0.82963395
25	0xbef397f3	-0.47576866
26	0xbe8056f3	-0.25066337
27	0xbf5f0260	-0.87113
28	0x3f4e14cd	0.8050049
29	0xbedc7a44	-0.4306203
30	0xc01c9a4a	-2.446917
31	0xbf10b9f7	-0.5653376
32	0x3ec8149c	0.39078224
33	0x3f340906	0.7032627
34	0x3f505b61	0.81389433
35	0xbf52d82f	-0.8236112
36	0x3f4ed50d	0.8079384
37	0xbf01bb50	-0.5067644
38	0xbf5548ab	-0.8331401
39	0xbce669d6	-0.028126638
40	0xbf66cc78	-0.90155745
41	0xbfc04db4	-1.5023713
42	0xbf07d7cf	-0.5306367
43	0xbff739db	-1.9314531
44	0xc0076e9b	-2.1161258
45	0xbf9e2d46	-1.2357566
46	0xbe7c53cb	-0.2464134
47	0x3f14cd74	0.58125997
48	0x3f164c39	0.58710057
49	0x3f58e348	0.84721804
50	0x3da78b7d	0.08180902
51	0x3f4845f2	0.7823173
52	0xc004d74d	-2.075641
53	0x3f0fc668	0.5616212
54	0x3dd648db	0.10463115
55	0xbefcef08	-0.49401116
56	0xbeb83788	-0.35979867
57	0x3ec30a4e	0.380938
58	0x3e3bcb8e	0.18339369
59	0xc00ba3c3	-2.1818702

arith.constant1 f4 [10, 20]
0	0x3fa8a218	1.3174467
1	0x3f6f8587	0.9356312
2	0x3c26e21a	0.010185743
3	0x3f213bdd	0.6298197
4	0x3f207b15	0.6268781
5	0x3c69b8cc	0.01426525
6	0x3f68d1a0	0.9094486
7	0x3f09204c	0.53564906
8	0xbc8c9b71	-0.017163964
9	0x3f538446	0.8262371
10	0xbe37694e	-0.17911264
11	0x3f222a8e	0.63346183
12	0xbbc8dfe8	-0.0061302073
13	0xbf2fb12c	-0.6862972
14	0xbd2976bc	-0.041373
15	0x3e1acf02	0.1511803
16	0x3faf318f	1.3686999
17	0x3f3b4063	0.7314512
18	0xbf073099	-0.5280853
19	0xbc2a6e36	-0.010402253
20	0x3e6d11eb	0.23151366
21	0xbf28a719	-0.6587997
22	0xbe95e933	-0.2927948
23	0x3f2c8661	0.67392546
24	0xbf0c0a24	-0.54702973
25	0x3ebd4c28	0.36972165
26	0xbda62379	-0.081122346
27	0x3f18d770	0.5970373
28	0xbe8dcb81	-0.27694324
29	0x3e596a88	0.21232045
30	0xbec46699	-0.38359526
31	0xbf10f7d9	-0.56628186
32	0xbf3f3051	-0.746831
33	0x3ddd1e94	0.10796848
34	0x3e33d38e	0.1756117
35	0x3f457780	0.7713547
36	0xbedb3292	-0.4281202
37	0xbe1e7a2d	-0.15476294
38	0xbf59e109	-0.85109
39	0xbf5d3c8e	-0.86420524
40	0xbdc6402a	-0.09680207
41	0x3d8db212	0.0691873
42	0x3f0e557c	0.5559919
43	0x3ee5c987	0.44880316
44	0xbde1a8b3	-0.11018505
45	0x3ed46a84	0.41487515
46	0x3e349cb9	0.1763791
47	0xbc8644f3	-0.0163903
48	0x3f03858c	0.5137565
49	0xbe156978	-0.14591014
50	0x3f643e52	0.89157593
51	0xbe4c9c5a	-0.19981518
52	0x3ef746fb	0.4829634
53	0x3c59553c	0.01326495
54	0x3f946b3f	1.1595229
55	0xbcc93425	-0.024560997
56	0xbe5919c5	-0.21201237
57	0x3f1aac46	0.6041912
58	0xbed76873	-0.42071876
59	0x3f8f152f	1.117834
60	0x3f2afd7a	0.66793025
61	0x3ecb6279	0.39723566
62	0x3f31c984	0.69448113
63	0xbe99f9bf	-0.30073354
64	0x3ea72bff	0.32650754
65	0xbd883ba7	-0.06652003
66	0xbf8a744b	-1.081674
67	0x3d6c4389	0.057681594
68	0xbf9da43b	-1.2315744
69	0x3ed0b56e	0.4076342
70	0xbe312109	-0.17297758
71	0x3d8acf77	0.06777852
72	0x3f1c1251	0.6096545
73	0x3e9c2d05	0.30503097
74	0x3eb8eac5	0.36116615
75	0x3dbe0c6c	0.09279713
76	0xbe24f733	-0.16109924
77	0xbd16bfca	-0.036803998
78	0x3e1797df	0.14804028
79	0xbe94274d	-0.28936234
80	0x3efa1e58	0.48851275
81	0x3f6fac88	0.93622637
82	0x3eaa4476	0.33255357
83	0xbd8153d5	-0.06314818
84	0x3f81db50	1.0145054
85	0xbf5410c7	-0.828381
86	0xbe9dfadd	-0.30855456
87	0xbcaa857e	-0.020815607
88	0x3e9ed32c	0.31020486
89	0x3eb59da9	0.35471848
90	0x3ee44130	0.44580984
91	0x3e012362	0.12611154
92	0x3f508a44	0.81460977
93	0x3eeb9206	0.46009845
94	0x3f1330f7	0.5749659
95	0x3f295d56	0.66158044
96	0xbdde79c9	-0.108630724
97	0x3c1e2dca	0.009654472
98	0x3c879e04	0.01655484
99	0x3e31d4e5	0.17366369
100	0x3dc7b984	0.09752181
101	0x3f108c9b	0.56464547
102	0x3ee203a5	0.44143406
103	0x3e0c14c5	0.13679798
104	0x3eb87906	0.36029834
105	0x3fadd84a	1.3581631
106	0x3f825f53	1.0185341
107	0x3f15ec58	0.58563757
108	0x3e67082b	0.2256171
109	0x3f65480d	0.89563066
110	0x3f0deb93	0.5543758
111	0x3e1b7213	0.15180235
112	0x3c2a9e92	0.010413783
113	0x3fc75a54	1.5574441
114	0x3e7dce63	0.24785762
115	0x3f4f069e	0.8086947
116	0xbd283a53	-0.041071247
117	0x3f049e0b	0.51803654
118	0x3b955328	0.004557032
119	0x3ef00e17	0.4688575
120	0xbdc87a2d	-0.09788928
121	0xbe2e484e	-0.1701977
122	0x3f28b2c4	0.65897775
123	0xbf1fdd42	-0.6244699
124	0x3c8fb625	0.017542908
125	0xbeb1b5bc	-0.34708965
126	0x3e6c5a82	0.23081401
127	0xbe8596c1	-0.2609158
128	0x3f4a44ed	0.7901142
129	0xbed1e864	-0.40997612
130	0xbe73a4b3	-0.23793297
131	0xbf9604cc	-1.1720214
132	0xbe982726	-0.29717368
133	0xbf09a95a	-0.53774035
134	0x3ed83c16	0.42233342
135	0xbf3cfbfc	-0.73822
136	0xbfd24b4d	-1.642923
137	0xbe8557c7	-0.2604353
138	0x3ee47579	0.44620875
139	0xbd66ee76	-0.056379758
140	0x3ef0e87f	0.4705238
141	0x3f0cb29c	0.54960036
142	0xbcffff7c	-0.031249754
143	0xbd15284d	-0.036415387
144	0x3efbf5ec	0.4921106
145	0xbdd92a6e	-0.10603796
146	0x3eb79be7	0.35861132
147	0x3d642b19	0.055705164
148	0x3ed5980d	0.41717568
149	0xbd7a138a	-0.06105379
150	0xbec0fe72	-0.37694126
151	0x3ed242ab	0.4106649
152	0x3e4b107f	0.19830512
153	0x3ecfdcd4	0.40598166
154	0xbe2ab95e	-0.16672274
155	0xbcd3b2de	-0.025842126
156	0x3f3386a0	0.70127296
157	0xbdb9f92d	-0.0908073
158	0x3fce495a	1.6116135
159	0xbeb2e9c5	-0.34943977
160	0xbe3fd31c	-0.18732876
161	0xbe326dd2	-0.17424706
162	0xbcbbcc3d	-0.022924537
163	0x3ed0211f	0.4065027
164	0x3e61abc7	0.22038184
165	0x3e743049	0.23846544
166	0xbf048e2b	-0.5177943
167	0x3df0e9ea	0.117633656
168	0xbd6304d2	-0.05542452
169	0xbd997dca	-0.074946955
170	0x3f580bd0	0.84393024
171	0x3f63c93b	0.8897893
172	0xbe87e2ab	-0.2654012
173	0xbe362eb7	-0.17791258
174	0x3e4f5793	0.2024825
175	0x3efacc2d	0.489839
176	0x3f296837	0.66174644
177	0xbdda71a8	-0.106662095
178	0xbeed0bd3	-0.46298084
179	0x3f2adafa	0.6674038
180	0xbca14d9f	-0.019690333
181	0xbf85f9a2	-1.0466807
182	0x3f41eebb	0.757549
183	0xbdba1e40	-0.09087801
184	0x3d2bd48b	0.041950744
185	0x3e2aa6d6	0.16665205
186	0x3f8a00e0	1.0781517
187	0xbc9f1275	-0.01941798
188	0x3f58da36	0.84707963
189	0xbe7f7bb1	-0.24949528
190	0x3f2177e9	0.63073593
191	0x3e78b75f	0.242887
192	0x3f04e098	0.519052
193	0x3f2a4b61	0.6652127
194	0x3ed61e01	0.41819766
195	0xbe9228fe	-0.285469
196	0x3ed22722	0.4104548
197	0xbe3da2fa	-0.18519202
198	0x3fda7819	1.7067901
199	0x3d601dba	0.05471585

arith.constant2 f4 [6]
0	0xbeeaaa0e	-0.45832866
1	0xbe2b9f90	-0.16760087
2	0x3f03fcab	0.51557416
3	0xbd97c19f	-0.07409977
4	0x3ecbebd0	0.39828348
5	0x3c21ffea	0.009887675

sequential_1/dense_1_2/Add/ReadVariableOp f4 [10]
0	0x3e98ca5b	0.29841885
1	0x3e8a3249	0.2699149
2	0x3eb889ae	0.3604254
3	0x3f1b92a4	0.6077063
4	0x3babdeec	0.00524508
5	0xbe9057f6	-0.2819211
6	0xbe84a02e	-0.25903457
7	0x3e1f88c1	0.15579511
8	0x3f870519	1.0548431
9	0x3ed25daa	0.41087085

sequential_1/dense_1/Add/ReadVariableOp f4 [20]
0	0xbebcea88	-0.36897683
1	0xbf25803e	-0.6464881
2	0xbecfe6b5	-0.40605703
3	0xbef74045	-0.4829122
4	0xbf0ae805	-0.54260284
5	0xbf7ccfd8	-0.98754644
6	0xbeea164e	-0.45720142
7	0xbd34ccb1	-0.04414052
8	0xbf0a0c68	-0.5392518
9	0xbe97a65b	-0.29619107
10	0xbf665315	-0.89970523
11	0x3d27b992	0.040948458
12	0xbea91f28	-0.33031583
13	0xbf41f6d7	-0.7576727
14	0xbf81de74	-1.0146012
15	0xbf2a4868	-0.66516733
16	0xbe8341eb	-0.2563623
17	0x3f2ecad0	0.6827822
18	0xbf00d96c	-0.5033176
19	0xbf10a4ad	-0.56501275

sequential_1/dense_1/MatMul f4 [20, 42]
0	0xbd88d164	-0.06680563
1	0x3e82d052	0.2554956
2	0xbe7276fa	-0.23678198
3	0xbdb1434e	-0.086554155
4	0xbe21109c	-0.15728992
5	0xbd8eafea	-0.06967147
6	0xbe5924d6	-0.21205458
7	0x3c4e5ae5	0.012594913
8	0xbea68939	-0.32526568
9	0x3dc9fe14	0.09862915
10	0xbe10d91c	-0.1414532
11	0x3da6af0b	0.081388555
12	0xbdc52cc7	-0.09627681
13	0x3cf800ec	0.030273877
14	0x3d65786b	0.056023043
15	0xbe42a63c	-0.19008726
16	0x3e9f98ad	0.3117117
17	0xbe04339f	-0.12910317
18	0xbe0ef1b1	-0.13959385
19	0x3e304bcc	0.17216414
20	0xbdfc8310	-0.12329686
21	0x3d65082b	0.055915993
22	0x3ee34348	0.4438727
23	0x3c68a398	0.01419916
24	0x3f3c5c9e	0.7357882
25	0x3bcb82fc	0.006210683
26	0xbe52151f	-0.2051587
27	0x3e6400e4	0.22265965
28	0xbe3e8fdf	-0.1860957
29	0x3d3573ab	0.044299763
30	0x3e20e11f	0.15710877
31	0xbb24684d	-0.0025086582
32	0x3eccee94	0.4002577
33	0xbecf8518	-0.4053123
34	0xbe0b05aa	-0.1357638
35	0x3ea0059f	0.3125429
36	0xbe2a9400	-0.1665802
37	0x3e376cc2	0.17912582
38	0x3d948c90	0.07253373
39	0x3c05d3ee	0.008168204
40	0x3ebd16c8	0.36931443
41	0xbd86927a	-0.06570907
42	0xbd943948	-0.07237488
43	0x3d154548	0.036443025
44	0x3d98a661	0.07453609
45	0x3d6c50a8	0.057694107
46	0x3d41f91b	0.047356706
47	0xbe2b60a0	-0.16736078
48	0x3daac7d8	0.083388984
49	0xbef23d62	-0.47312456
50	0x3dbabdaa	0.09118207
51	0xbf20223f	-0.62552255
52	0xbe032717	-0.1280788
53	0x3e3a1e90	0.18175721
54	0x3cf78da3	0.030218905
55	0xbc763eb8	-0.015029602
56	0x3b4f8af4	0.0031668516
57	0xbe2a50af	-0.16632341
58	0x3c9cb42b	0.01912888
59	0xbe4b73e5	-0.19868429
60	0xbe2b9433	-0.16755752
61	0x3e6d9112	0.23199871
62	0xbd15485f	-0.03644597
63	0xbe2a3acc	-0.16623992
64	0xbe31c44c	-0.17360038
65	0x3d744722	0.05963815
66	0xbe80ae21	-0.2513285
67	0x3ef348b6	0.47516412
68	0xbe41c05a	-0.18921033
69	0x3e172b4d	0.14762612
70	0x3d0f1e15	0.034940798
71	0xbd8485f9	-0.06470866
72	0xbd92ba51	-0.07164443
73	0x3ee16e6d	0.4402956
74	0xbe86dcc5	-0.2634031
75	0x3f95f4e0	1.1715355
76	0xbe12bc28	-0.14329588
77	0xbe1e1fff	-0.15441893
78	0x3c74c4b3	0.014939475
79	0xbdc9830b	-0.098394476
80	0x3c2e4595	0.010636707
81	0x3e9eb0c8	0.30994248
82	0xbd7ea962	-0.062173255
83	0x3fa0a112	1.2549155
84	0xbdf30694	-0.11866489
85	0xbe603258	-0.21894205
86	0xbdab5872	-0.08366479
87	0x3e88314c	0.2660011
88	0xbcbce971	-0.023060532
89	0x3edb4158	0.4282329
90	0xbdd258ef	-0.10270869
91	0x3ef6cd48	0.48203492
92	0xbe66a8a6	-0.22525272
93	0x3ed1b695	0.40959612
94	0x3e016be0	0.12638807
95	0x3e594222	0.21216634
96	0x3c8c0844	0.017093785
97	0x3dbbb0d3	0.09164586
98	0xbb2de183	-0.002653212
99	0x3d71301f	0.058883782
100	0xb9d833e3	-0.0004123739
101	0xbd125457	-0.035724964
102	0x3e281fee	0.1641843
103	0x3e1cbc1c	0.15306133
104	0x3c957c59	0.01824777
105	0x3df90f67	0.12161141
106	0xbe074768	-0.13210833
107	0x3c9eccc3	0.019384747
108	0xbe23961b	-0.1597523
109	0xbd2bacfa	-0.04191301
110	0x3e084058	0.13305795
111	0x3e09adf2	0.13445261
112	0xbc50e330	-0.012749478
113	0xbc00ca8b	-0.00786079
114	0x3e134084	0.1438008
115	0xbf646e4c	-0.892308
116	0x3ddc621c	0.107609004
117	0xbf611853	-0.8792774
118	0x3d281d6a	0.041043676
119	0x3dc17851	0.09446777
120	0xbb63daad	-0.0034767792
121	0xbce7171e	-0.028209265
122	0xbdb49f43	-0.08819439
123	0xbf0996b8	-0.53745604
124	0x3e4179d2	0.18894127
125	0xbf5afbe7	-0.8554062
126	0x3de802c8	0.113286555
127	0xbd05ab30	-0.03263396
128	0xbed3688f	-0.4129071
129	0x3ed6bb7d	0.41939917
130	0xbe08d4cc	-0.13362426
131	0x3ea9ee89	0.331898
132	0x3cbd2819	0.02309041
133	0x3eab63a2	0.3347445
134	0x3e20c4b8	0.15700042
135	0x3e334ff7	0.17510973
136	0xbe339fdd	-0.17541452
137	0xbe54e1ee	-0.2078931
138	0xbc1ab3cc	-0.009442281
139	0xbe670fa5	-0.22564562
140	0x3e43657a	0.19081679
141	0xbe68c640	-0.22731876
142	0x3eb2f053	0.34948978
143	0xbee27dd7	-0.44236633
144	0xbd4a6ffd	-0.049423207
145	0xbe859560	-0.26090527
146	0xbe03d729	-0.12875046
147	0x3e0c662c	0.1371085
148	0xbe29bc2e	-0.16575691
149	0x3ead9f97	0.3391082
150	0xbe098f30	-0.13433528
151	0x3e512697	0.20424877
152	0x3ec39a46	0.3820364
153	0xbe8ebb11	-0.27877095
154	0xbd4c71a9	-0.049913082
155	0x3dfdd4c6	0.12394099
156	0xbdbe43e8	-0.09290296
157	0x3df93877	0.12168973
158	0xbe0d19e5	-0.13779409
159	0x3d1bc704	0.038031593
160	0x3ee7dc43	0.45285234
161	0xbeacf97f	-0.337841
162	0x3e50cc26	0.20390376
163	0x3d4ff4e4	0.050770655
164	0xbd287a0b	-0.041132014
165	0x3dc61e82	0.09673788
166	0xbd62d5fc	-0.055379853
167	0x3c42d2b5	0.011891057
168	0x3e6b1748	0.229581
169	0xbe207aa2	-0.1567178
170	0x3f269135	0.6506532
171	0x3e8898ff	0.26679227
172	0x3ed1b36e	0.40957206
173	0x3dc5fcac	0.09667334
174	0x3f1def70	0.6169348
175	0xbda985a3	-0.08277442
176	0x3f1469f2	0.5797416
177	0xbd8dbe68	-0.06921083
178	0xbe7d2eeb	-0.24724929
179	0xbcfab9c1	-0.030606152
180	0xbc90d919	-0.017681645
181	0x3d61405e	0.054993026
182	0x3e10b4db	0.14131491
183	0xbd1da0d6	-0.038483463
184	0x3dfa0346	0.122076556
185	0xbdeb63e9	-0.11493666
186	0xbe4590b8	-0.19293487
187	0xbd365221	-0.044511918
188	0xbe46e5c4	-0.19423586
189	0x3d901ebf	0.07037114
190	0xbed0c3ee	-0.40774482
191	0x3e30c777	0.1726359
192	0xbf241e38	-0.6410861
193	0x3e89a781	0.26885608
194	0xbdc9708a	-0.09835918
195	0xbdb3c363	-0.087775014
196	0xbdc74aa9	-0.09731037
197	0xbd57b14d	-0.05265932
198	0xbec94891	-0.39313176
199	0xbda8e15a	-0.082461074
200	0xbf409b2b	-0.7523677
201	0xbcb154a0	-0.021646798
202	0x3ea2a308	0.31765008
203	0xbcd34eb4	-0.025794365
204	0xbd522529	-0.05130497
205	0x3c86fa4b	0.01647677
206	0xbed6b9a0	-0.41938496
207	0x3e31693d	0.17325301
208	0xbf375f78	-0.7163005
209	0x3ce4031f	0.02783352
210	0xbcba47b0	-0.022739261
211	0x3e5b3cb4	0.21409875
212	0x3ed81135	0.42200628
213	0xbeae27d0	-0.3401475
214	0x3eeff7b6	0.46868676
215	0xbe8e37d0	-0.27776957
216	0x3ed08cd5	0.40732446
217	0xbf404ea1	-0.7511998
218	0x3e353f93	0.17700033
219	0xbf24dfae	-0.6440381
220	0x3ee11955	0.4396464
221	0xbe3b8bde	-0.18315074
222	0xbdb1f093	-0.08688464
223	0xbd942406	-0.072334334
224	0xbe7aad91	-0.24480273
225	0x3e2ed5ac	0.17073697
226	0xbe9bb409	-0.30410793
227	0x3e26e162	0.16296914
228	0x3ee209b8	0.4414804
229	0xbe40b484	-0.18818861
230	0xbc44f465	-0.012021159
231	0xbe6d9cb7	-0.23204313
232	0xbe359f26	-0.17736492
233	0x3dd07a0d	0.10179529
234	0xbe2ceebc	-0.16887945
235	0x3d8be396	0.06830518
236	0x3e875a20	0.26435947
237	0xbeadc40b	-0.3393863
238	0x3d378905	0.044808406
239	0xbe5bc1fa	-0.21460715
240	0x3d69358c	0.056935832
241	0x3de08dd4	0.109645516
242	0x3da89fb8	0.08233589
243	0x3dffedfb	0.12496563
244	0x3e99dad5	0.30049768
245	0xbeae2a5f	-0.34016702
246	0x3da77d50	0.08178198
247	0xbdfd0438	-0.1235432
248	0xbdb6e757	-0.08930843
249	0x3dd019ed	0.10161195
250	0x3cec5019	0.028846787
251	0x3dde0f4f	0.10842764
252	0xbccf8e30	-0.025336355
253	0xbd627010	-0.055282652
254	0xbe466f5a	-0.19378415
255	0x3e14450b	0.14479463
